WARNING:tensorflow:From C:\Users\HEEKWON\anaconda3\envs\reinforcementLearningProject_2\lib\site-packages\keras\src\backend.py:873: The name tf.get_default_graph is deprecated. Please use tf.compat.v1.get_default_graph instead.
Model: "sequential"
_________________________________________________________________
 Layer (type)                Output Shape              Param #
=================================================================
 conv2d (Conv2D)             (None, 20, 20, 32)        8224

 conv2d_1 (Conv2D)           (None, 9, 9, 64)          32832

 conv2d_2 (Conv2D)           (None, 7, 7, 64)          36928

 flatten (Flatten)           (None, 3136)              0

 dense (Dense)               (None, 512)               1606144

 dense_1 (Dense)             (None, 3)                 1539

=================================================================
Total params: 1685667 (6.43 MB)
Trainable params: 1685667 (6.43 MB)
Non-trainable params: 0 (0.00 Byte)
_________________________________________________________________

Agent Initialized

기존 가중치 로드 완료!

=== Episode: 0 ===
Score: -13.0 | Max: -13.0 | Avg(100): -13.00
Steps: 6894 | Duration: 213.78s
Epsilon: 0.1000 | Learns: 0
Q-values: μ=0.126, σ=0.006
…
